models/a2c_flappy_bird.pth (torch, 283092 bytes, 7 tensors)

feature_layer.0.weight f4 [256, 12]
00000000: 01fd 80be ea71 483e 52b1 4f3e 3be1 52be
00000010: 3b29 90be cb91 2f3e 7fd5 b43d b8a9 41be
00000020: d8a8 6dbe 9167 bebc 2233 16be ee11 2b3e
00000030: 9264 913d 6153 923e 9362 7f3e 60e8 aa3d
00000040: 9268 903d 9d4a 193e 2034 553e b03c 65bd
00000050: fa35 eebd 24c1 21be e867 c6be 635f 823e
00000060: e003 2e3e 95a8 29be 4c38 50bc 53db 053e
00000070: 29a3 5bbe 8b7f 80be e81d 68be 2ed8 48be
00000080: 731b efbd 720d 83bd 6b79 833e 2c67 a03c
00000090: 55e4 85be 377d 02bd 2f7d 903d 112c 25bd
000000a0: 0788 033e 1cb1 4c3d c329 05be ace8 9dbe
000000b0: 6371 ff3c 6169 eb3e 8262 983d c8ae d53d
000000c0: b0fb 643e 8d7f b03e f367 8b3c b61a 503d
000000d0: 073f 413d 5cd4 5b3d 522e 423e 6744 793e
000000e0: 9603 fd3c d93d e9be a278 623c 42c1 e23c
000000f0: c3e0 8cbe b6f0 c8be 142f 3ebe fbfe e23d
00000100: f402 043e 3fd6 8ebd c8b9 62be 04bd 24bc
00000110: 55a3 713e 93b3 e83e 20b0 af3c 25ac 5f3e
00000120: a3ad 8fbe 8485 cb3e 0792 d43d 969b 103b
00000130: 3eb2 f7bd 76ca 023e 881f 77be 6aba 633e
00000140: e942 82be f0b6 853e 3a1a 86be 8875 bd3d
00000150: 73f1 8a3d 6932 903e 64a8 2abe c19a 06bd
00000160: 4647 b93d fb1b 61be 3f1f adbd c3f2 8abe
00000170: cd77 4dbe 83ed b73c 5700 073e c4f5 6a3e
00000180: 671a d1bd fb19 0dbe b164 62be da8c f5bd
00000190: 9d02 813e 168a d8bd bcd0 35be 66e5 6f3e
000001a0: ea24 65bd a575 233e a47e 5c3e ab96 62bd
000001b0: 9f6e 383d 56b4 453e 29fe 0cbe fbb4 ccbd
000001c0: f3b6 cc3d 0eda 2abe 6b1f 60be 8356 e2bd
000001d0: aea8 cfbb 5840 52be 8d26 113c 5e92 1abe
000001e0: 4e2c 2e3e f054 ba3d 8bc7 c83e 74fe 80bd
000001f0: 66d7 1d3e 7aaf fabd 6351 603d b229 4a3e
00000200: 9ea5 3b3e 1bc9 d7be b229 63be 31aa 593c
00000210: 6d72 90be ce6a 793d 2b37 26bd 0107 a33b
00000220: 085d 00bf 216f 1ebe b8a5 78bd 0a0d dc3e
00000230: 246c b53d 74e1 b03d 29db c4bc 12f6 c73d
00000240: 9a9a 10bd 855e 883e b7d3 483e 30a4 2d3e
00000250: 2497 edbd ee95 c83c ff80 83be faa8 0abe
00000260: 526f 6fbd f033 9cbe 49f8 083e b679 aebc
00000270: 5c1f 703c 2a7d d53e 7090 443e f6fe 273e
00000280: 7807 a73d c26f b4bd 72ca 99be 5c74 2fbe
00000290: 76d6 113e 6860 1cbe 7eb1 793d 0455 81be
000002a0: 9c11 c8be 3c8f 573e 1717 d7bd ebc1 5bbc
000002b0: 92ef a1be 4d78 0bbd 4b06 103e 1f76 873e
000002c0: c9ea 92bd e8ae 4e39 5767 15be 4be2 0e3e
000002d0: 9a43 f5bb 270e d83d 609c f03d 27f1 1e3e
000002e0: 7e4e 19bd 87c2 fa3d 7acd a83d 6034 a6be
000002f0: 5bb0 6dbe 86c0 83bd 24e1 aebe 463b 8d3e
00000300: f0a2 983d f056 65be f848 38be 940d a6bc
00000310: e8eb 533e f658 77bd 6e1e 5a3d 8d40 4fbe
00000320: 59d3 e73d 6bee 19be 4144 cdbd ba36 4fbd
00000330: da92 9b3e 2559 07be 04c2 c9be 57e1 1fbe
00000340: 18ad 933d b211 1c3e 40a3 853e efbb ccbe
00000350: 3b53 ce3b b020 2f3d f1d2 023d 7370 88be
00000360: b9ab 9f3d 62bf 16be dac9 07be c0a7 823e
00000370: 8baf 2dbd ded2 7ebd 7c0e 47be 7880 bb3d
00000380: 2457 32bd a6f0 6cbe f6b8 be3c ca5e 603e
00000390: 68a8 e53d 33d3 903e b245 88be 443d 593e
000003a0: b280 3d3e 1b79 87be 0c23 8abe 8f63 8ebe
000003b0: 716a 0ebe ef6e 0f3e fe99 34bd 5349 02be
000003c0: 6bca 093e b105 7ebe f60c 9cbc bcf0 aebe
000003d0: f030 0abe df68 563d 5092 fe3d e8e3 1b3e
000003e0: 0948 453e 0f8b e4be c679 62bd 62e4 1c3e
000003f0: 5060 053e c813 293b c376 0abe d6d4 32be
-0.25193027 0.19574705 0.20282486 -0.20593731 -0.28156456 0.1714546 0.08829784 -0.18912399
-0.2320894 -0.023242744 -0.14667943 0.16706058 0.070992604 0.28579238 0.24939947 0.08345103
0.07051195 0.14969869 0.20820665 -0.05596608 -0.11631389 -0.15796334 -0.3875115 0.254634
0.16993666 -0.16568215 -0.012708735 0.13071947 -0.2144896 -0.25097308 -0.22667658 -0.19613716
-0.116751574 -0.06399049 0.25678572 0.019580446 -0.26150766 -0.031857695 0.07055127 -0.040325228
0.12844859 0.049973592 -0.13004212 -0.30841577 0.031181997 0.45978835 0.07440664 0.104337275
0.22361636 0.34472314 0.01701734 0.050806724 0.04717925 0.05366932 0.18962982 0.243425
0.030885499 -0.45555 0.013822706 0.027680043 -0.2751523 -0.39246148 -0.18572646 0.1108379
0.12891752 -0.06974458 -0.22141182 -0.01005483 0.23597462 0.45449504 0.021446288 0.21843012
-0.28062162 0.39750302 0.10379415 0.0022065393 -0.12094544 0.12772545 -0.24133122 0.2223908
-0.25441673 0.26116133 -0.26191884 0.09250933 0.06784334 0.2816346 -0.16665798 -0.03286243
0.090467975 -0.2198333 -0.08453225 -0.27138337 -0.20065232 0.022452122 0.13183723 0.22945315
-0.10210114 -0.13779442 -0.22108723 -0.11989756 0.25197306 -0.10573213 -0.17755407 0.23427352
-0.055943407 0.15962847 0.21532685 -0.05531947 0.04502737 0.19307074 -0.1376883 -0.09995457
0.09995832 -0.16684744 -0.21886985 -0.11051657 -0.006337247 -0.20532358 0.008859289 -0.15094897
0.17009088 0.09098232 0.3921474 -0.06298533 0.15414199 -0.12240501 0.054765116 0.19742468
0.18324897 -0.4214562 -0.22183874 0.013285206 -0.282123 0.060892873 -0.040579956 0.0049752
-0.50141954 -0.1547208 -0.060704917 0.42978698 0.08858517 0.08636752 -0.024030285 0.09763731
-0.03530369 0.26634613 0.19612013 0.16957164 -0.116010934 0.024485555 -0.25684354 -0.13541022
-0.058455773 -0.30508375 0.13375963 -0.02129827 0.014655914 0.41697055 0.19195724 0.16405854
0.081557214 -0.088103786 -0.30037266 -0.17134231 0.14241967 -0.15271151 0.060960285 -0.25260174
-0.39075935 0.21050733 -0.10502451 -0.013412933 -0.3162809 -0.034050275 0.140649 0.26457307
-0.07173688 0.00019710849 -0.14590202 0.13953511 -0.0074848654 0.10549574 0.11748576 0.1552168
-0.03742837 0.122441344 0.082423165 -0.32461834 -0.23211806 -0.06433205 -0.34156144 0.27584285
0.07452953 -0.22396445 -0.17996585 -0.020270146 0.2069546 -0.060387574 0.053251676 -0.20239468
0.11319608 -0.15032355 -0.10022784 -0.0505893 0.30385476 -0.132176 -0.39405835 -0.15613304
0.072107494 0.15241125 0.26101112 -0.39987132 0.006296543 0.042755783 0.03193945 -0.26648292
0.07796425 -0.14721444 -0.13260594 0.25518608 -0.04240374 -0.062212817 -0.19439119 0.09155363
-0.043540135 -0.23138675 0.023281556 0.21911159 0.112137616 0.28286132 -0.26615673 0.21214777
0.18506125 -0.26459584 -0.26979864 -0.27810332 -0.13907792 0.14007162 -0.04409217 -0.12723283
0.13456123 -0.24806859 -0.019049149 -0.3416804 -0.1349523 0.052346107 0.12430251 0.15223658
0.1926576 -0.44637343 -0.055291913 0.15321496 0.13025022 0.0025799144 -0.13521867 -0.17464003

feature_layer.0.bias f4 [256]
00000000: b23d f6bd 8abb a4be bd43 7ebe da78 b73d
00000010: 937c 28be b517 1d3e 1714 923e 7974 8ebd
00000020: f67d 3ebe 9d74 873d 4e90 97bb a091 ec3d
00000030: 7dab 1f3e 203b ebbd eef7 4c3d a465 bc3b
00000040: dacc 7cbe 6cab 31be 8ebe 2cbd 1edf 57be
00000050: 5c9d 543e e201 c9bd ac25 8f3c 3ba4 abbe
00000060: e1fd 5bbe e40b 583e 6b07 8b3e 706b 513d
00000070: 2f45 653e 6953 89bb fdd9 2d3e 1a1b 62be
00000080: ffb2 10be 7162 9ebb 4d68 6fbe 9e61 edbd
00000090: 8cd0 8b3c 81db 0dbe b54e 0abe f772 20be
000000a0: 3c9a 7dbe 47b1 ff3d 0c44 18bd 42de 133d
000000b0: 0218 5cbe 1f9f 963d d362 2cbe 5262 3cbe
000000c0: 2b46 1c3e a4a9 823d 54e5 8abe ef59 3c3e
000000d0: b902 eebd 5b5c 8f3d e40d 3d3d ae69 06be
000000e0: 6a9f 86be ee10 de3d 443a 31be 8dd9 2e3e
000000f0: b714 42be d81e d03c 5b90 743d 4f1a 9cbc
00000100: e33f d13d 2648 0abe af81 393e 5620 3abd
00000110: d94a e0bd b093 313e 64e1 a0bd f2e8 4ebe
00000120: 126b bb3d 6c1b e03d 9406 94bc 3c72 c73d
00000130: 502a 513e a608 62be 4ee4 78be 4936 29bd
00000140: 75a8 213e a75b da3d 09ed 953d e7e7 27bc
00000150: 4df0 0bbd 3953 abbd ae51 59be daff b13d
00000160: 26a9 87bc 6878 a9bc ac2c 193e 780c 71be
00000170: f32e afbd ca49 6d3e fc2f 4f3d 2757 38be
00000180: 2c9b 2cbe a7ce 06be 0fda 5e3d ab0e da3d
00000190: 5f59 b8bc 0ad9 4dbe 4261 5fbe ffed bb3d
000001a0: efc4 8e3e adf2 67be 61eb 323e fdbb 1b3e
000001b0: 85c9 893e 3f81 823a 9d32 53be fc9a 4ebe
000001c0: 9b74 583e b31e c4bd 3a7a a1bc 4cec 463d
000001d0: 0ae9 20bd 91a7 f63b 4e5a 70be fd5c 3bbe
000001e0: 2af3 883d 71b8 2e3e ce77 9f3e 25fa 3c3e
000001f0: 5155 24be d364 73be 04b5 0cbe 7589 5bbe
00000200: edf2 89bd 4c62 56be 2fc4 4a3d 471e e53d
00000210: dd06 78be d782 573e 9b32 823e f5c5 e13d
00000220: 7f11 65bc f52a 97bc 3304 0f3d d5e4 843d
00000230: 65d4 353d 8c94 7ebe b385 22be b16f ce3c
00000240: 179f 29bb 63bc a23d 12a3 123e 28fb a9bc
00000250: 3eb4 1cbd e73a 78be e105 26be 04bf a13d
00000260: cabc d2bd fb4e 8fbd d626 663e 5f36 28be
00000270: 9382 853c 2d80 bd3d d6e2 593e 3e58 4abe
00000280: c421 1a3e 02a4 8abe 3820 13bd dc1e 3fbe
00000290: 4955 8cbe 30a6 243e 5a36 91bd f00c 8fbe
000002a0: b4a2 d23d b218 f53d 6234 7f3d a270 93be
000002b0: 629e 63be 7e8e 9abe b353 5a3c 731d aa3c
000002c0: 7835 6bbd 1bfb 533e 9fbc a23d 61d4 95be
000002d0: f8ad 403e a42c 84bd d630 71bd cd7e 4bbe
000002e0: e5cc 153e c3d1 adbd 39e6 8abe c784 46be
000002f0: bddd 173e f217 84be 6d83 0bbe 7f53 843e
00000300: d1f6 70be fa4a 34be a378 02bd 5c48 703e
00000310: 99b3 90bd f610 b3bd d59f dfbd 2167 05be
00000320: f735 ebbc b4eb 3dbe 178a 803e d0b4 89be
00000330: 7463 733e 5ba1 51be 6bef 7a3e 54b1 1fbe
00000340: 57fb 773d c861 ee3d dd8f a7bd 1922 2fbe
00000350: 33b0 a4be 592a 6b3d 0805 c7bd f8e0 003c
00000360: ad81 543e 9252 103e 1bf1 463c 7b39 8dbe
00000370: f9f2 ad3d 39c9 d4bd ff3f 9abd 6bc6 373e
00000380: 55dd 55be 3b19 d33d 29e5 8ebd 244e debd
00000390: 6dab 07be 9485 42bd 1e3c 203e c421 f43d
000003a0: 18bf 26bd 29ba f5bb 8ffb ee3d 0238 8abe
000003b0: a784 63be 80fc 5d3e 1e38 86bd ab2c d2bd
000003c0: b04d 0abe fb8a dcbd 9fee e23c 2cbd 6fbe
000003d0: 5861 bdbd 8535 08be 4a4a 043e 8a97 4dbe
000003e0: 5e7c 04be be8c 77be a848 60bd 1920 b0bd
000003f0: b679 bb3d a91d 243e c139 d83d 088d 343e
-0.12023486 -0.3217433 -0.24830528 0.089585975 -0.16453771 0.15341075 0.28530952 -0.06955809
-0.18602738 0.06614039 -0.0046253568 0.11551213 0.15592761 -0.114858866 0.05004113 0.005749421
-0.2468752 -0.17350549 -0.042173915 -0.21081206 0.20763153 -0.09814812 0.017474018 -0.33523735
-0.21483566 0.21098286 0.27154097 0.05112785 0.22389673 -0.0041908515 0.16977687 -0.22080651
-0.14130782 -0.0048335125 -0.23379631 -0.115908846 0.017067216 -0.13853265 -0.13506587 -0.15668856
-0.24765867 0.12484985 -0.03717427 0.036100633 -0.21493533 0.07354569 -0.16834573 -0.18396881
0.15261142 0.06380013 -0.27128088 0.18393682 -0.11621613 0.07000037 0.046155825 -0.13126251
-0.26293498 0.10843073 -0.17307383 0.17075177 -0.18953215 0.025405332 0.05970798 -0.019055514
0.102172635 -0.13504085 0.18115877 -0.045440994 -0.10951776 0.17341495 -0.0785549 -0.20206049
0.091512814 0.1094273 -0.018069543 0.09738585 0.20426297 -0.22073612 -0.24305841 -0.041311536
0.15786918 0.106620125 0.073206015 -0.010248161 -0.034164716 -0.08365483 -0.21222565 0.08691378
-0.016560148 -0.020687297 0.14958447 -0.23539913 -0.08553877 0.2317268 0.05058287 -0.18001996
-0.16856068 -0.13164769 0.054407176 0.10647329 -0.022503553 -0.20102325 -0.21814445 0.091762535
0.27884623 -0.22651167 0.17472602 0.1520843 0.2691156 0.0009956731 -0.20624776 -0.2017631
0.21138231 -0.09576168 -0.019711602 0.048565194 -0.039284743 0.0075272997 -0.23471949 -0.18297191
0.06687005 0.17062546 0.3114609 0.18454798 -0.1604817 -0.2376893 -0.13740927 -0.21439154
-0.067357875 -0.20935935 0.0495035 0.111874156 -0.24221368 0.21046005 0.25429234 0.110240854
-0.013981222 -0.0184531 0.034916114 0.06488959 0.04439201 -0.24861354 -0.15871315 0.025199743
-0.0025882178 0.07946088 0.14320019 -0.020749643 -0.03825783 -0.2424122 -0.1621318 0.078977615
-0.10289915 -0.06997486 0.22475752 -0.16426991 0.016297614 0.09252963 0.21277937 -0.19760224
0.15051943 -0.27078253 -0.035919398 -0.18664116 -0.27408817 0.1607902 -0.07090445 -0.27939558
0.102849394 0.11967601 0.062305816 -0.2879687 -0.22228387 -0.30186838 0.0133256195 0.020765996
-0.05742404 0.20701258 0.07946133 -0.29263595 0.18816364 -0.06453827 -0.058884464 -0.1987259
0.14628942 -0.084872745 -0.2712877 -0.19386588 0.1483068 -0.2579952 -0.13624354 0.25844952
-0.23531653 -0.17606726 -0.03185333 0.23465103 -0.070655055 -0.087434694 -0.109191574 -0.13027622
-0.028712256 -0.18546945 0.25105354 -0.2689576 0.23768407 -0.20471708 0.24505393 -0.15594989
0.06054243 0.11639744 -0.081817366 -0.17102851 -0.3216568 0.057413433 -0.097177565 0.007866137
0.20752592 0.14093998 0.012142445 -0.27582917 0.08493609 -0.10389943 -0.075317375 0.17946784
-0.20885213 0.10307547 -0.069773026 -0.10854748 -0.13248987 -0.04749067 0.15647933 0.11920503
-0.040709585 -0.0074989987 0.11669075 -0.26995856 -0.22218572 0.21678352 -0.06553672 -0.10262426
-0.13506198 -0.10768696 0.027701674 -0.23412007 -0.092470825 -0.13301666 0.12918964 -0.20077339
-0.12938067 -0.24174783 -0.05475679 -0.08599872 0.09154074 0.1602694 0.10557891 0.17631924

feature_layer.2.weight f4 [256, 256]
00000000: 976d 14bd b7ce 4b3b 4856 0a3d 27b3 13bd
00000010: 3c15 9fbd cca6 cbbc 28f8 4e3d c2a8 733d
00000020: 106b 6c3c 2a31 47bd 9f1b ca3c ce92 d739
00000030: 33fe 0c3a fd56 e63c aecd 5f3d 5884 6dbd
00000040: 269b 4e3d 5aae 4ebd de53 4fbc f652 273d
00000050: 708c 843c b531 7abd 3d55 88bc 1976 83bb
00000060: 38a0 cc3c a144 2b3d bd8c 01bd 236e 8c3b
00000070: 134a a63a ab95 ff39 e35c bbbc 7f4f 00bd
00000080: be5e 53bb b011 b43c 6fac ff39 6d76 6fba
00000090: 3129 63bd 6206 31bd a6e8 30bd 3d45 f63c
000000a0: 9b1b 233d 4094 793c 1492 ddbd 3c58 a83a
000000b0: 7c73 e6bc fb0f 17bd 4666 40bd c0a8 533b
000000c0: d7b8 143d 91d2 73bd c66a 783d 0e1d e5bb
000000d0: 170b 86bd b3fc 493c 007f 9abd 49a9 a63c
000000e0: 8038 6bbc a7e5 c03c f353 c33c fdaa ee3c
000000f0: 72a8 783c b1ef 8f3c cd89 02bd 5e3e 68bd
00000100: 1e81 0dbd 458d b63b f242 b4bc 7be0 59bd
00000110: c764 31bd 1c41 68bc 301c 7d3d ac9e b93c
00000120: 6d94 56bd f480 5ebd 844d df3b bb82 99bd
00000130: 09dd a93b b01b 7d3d ee85 3e3d e6ff 0035
00000140: 988f 563d bd69 c33b b0d0 31bd 5664 05bd
00000150: db04 ff3c dde8 08bd 308f a0bb b66a 52bd
00000160: 84e4 273c 5eaf 21bd b786 6bbc cc0e 86bc
00000170: d150 c63c c827 743c 082e 713d 154b 803d
00000180: f1b3 10bd 33dd 223d 1def bb3b 3289 1d3d
00000190: 3031 fb3b a6fc 30bd 37a7 17bd 5352 9b3c
000001a0: 780d c13c 3c3d 1c3d befd 0fbd b606 abbb
000001b0: 2d8e 113c a369 71bd 623c 4fbd 5ba0 5cbb
000001c0: 1f56 073d 700b 9abd c1dc 6a3d f90f 87bd
000001d0: 6c95 31bd 182d 9abc 3035 1c3d c297 78bd
000001e0: 93cc 91bd 2280 aebb 7d4c fb3c b816 f03c
000001f0: 80f8 523d 9416 ea3b d42e 4bbd 900e 23bc
00000200: 8df3 8abd a2cb 2cbd f286 02bd 62fb 9b3c
00000210: 6ab3 6a3d 843d bfb8 b365 9838 3a91 983b
00000220: 8916 ca3c 6731 60bb b60f 7f3d 934b 9cbc
00000230: 1350 4dbc a2a4 013d 40b9 d2ba 9690 5b3c
00000240: 80f0 f83c 4e91 283c 4de8 0e3d c563 99bb
00000250: 1785 84bd 86bc 7abd 4524 5c3d b3a2 363d
00000260: 3043 4ebd 362d 8c3b 9b83 3abd 5a08 b6bc
00000270: 247c 313d 18dc 5abc ea1c 2e3d 7c6e 613d
00000280: 7d8b 193c 0075 383c ea06 fcbc dbd8 88bd
00000290: 8827 d3bc dce0 44bb 927c 77bd 3b8a 2e3d
000002a0: 1c7d 253d 5213 0a3d 779c c2bc 642a 15bb
000002b0: c0db 7c3c 745f e23c aa3d 343d dbf6 a7bc
000002c0: 7650 99bd ef9c 903c e4e9 643d 9526 223d
000002d0: 66eb dd3b f5a8 39bd 084f e03c c441 58bd
000002e0: c81d 1cba 00a7 f2bb 009e 0c3d f47e a8bc
000002f0: 4b3d 503b 8c89 9ebc 0406 883d acc4 db3a
00000300: a085 dc3c b597 44bb c031 38bb e486 9cbd
00000310: 3dd1 a0bc ad00 41bd f076 303d 9f5b 99bd
00000320: 41a7 17bd 2414 54bd ce02 82bd 5271 28bd
00000330: 6564 5dbd c4b5 9f3c 4e4b 1abd 826d 303c
00000340: 9c43 f13c 8efc a5bc 29e9 543c ca50 78bd
00000350: 4da8 d5bc 3f9d ec3c 10c3 7f3d 701b 983c
00000360: bf6f 05bd e7dc 01bc a50a bab9 adce 6fbc
00000370: 1b81 d73b 3f65 823c cc03 5abd 5280 373d
00000380: 77b6 24bd e39a 9a3b 7065 c1bc 1594 6d3d
00000390: 1bd2 273d 3837 63bd 3aa3 b4bc 6d48 5d3d
000003a0: d207 8ebd 9b7a a3bb b76f 8fbc 40cf 7a3d
000003b0: e8b9 ce3c 6418 85bd 5e79 49bd be8d d6bb
000003c0: 4af2 103d 6395 fdbc a024 453c c8a4 103d
000003d0: 8cb6 143d 8e79 5e3d 278a 83bd 88a7 f93c
000003e0: 9a73 bfba 7083 eabb 6b67 363c 4881 02bd
000003f0: 805d afbd d90b 8cbc bc4a f03c ae5f 8ebd
-0.036237326 0.0031098553 0.03377369 -0.036059525 -0.07767722 -0.024859808 0.05052963 0.059487112
0.014429823 -0.04863087 0.024671374 0.00041117374 0.0005378455 0.028117651 0.05463951 -0.05798754
0.05044093 -0.050459243 -0.012654273 0.040850602 0.016180247 -0.06108256 -0.016642207 -0.004011881
0.024978742 0.041813497 -0.03162836 0.0042855903 0.0012686871 0.00048748901 -0.02287144 -0.031325813
-0.0032252516 0.02198109 0.00048765863 -0.0009134773 -0.055459205 -0.043218978 -0.04319062 0.030062312
0.03982125 0.015233099 -0.10818878 0.0012843679 -0.02813124 -0.036880475 -0.046972536 0.0032296628
0.03630909 -0.059526984 0.060648702 -0.006991989 -0.06545084 0.012328315 -0.075437546 0.020344393
-0.014356732 0.023547007 0.023843741 0.029134268 0.015176879 0.017570348 -0.0318697 -0.056700103
-0.034546964 0.00557104 -0.022004578 -0.053192597 -0.043309 -0.01417568 0.06179446 0.022658668
-0.052387644 -0.054322198 0.0068146605 -0.07495638 0.00518382 0.061793983 0.046514444 4.8056097e-07
0.052383035 0.0059635327 -0.04341191 -0.03256639 0.031130245 -0.0334252 -0.004899882 -0.0513713
0.010247353 -0.039473884 -0.01437538 -0.016364478 0.024208458 0.014902063 0.05888179 0.06264321
-0.035327855 0.039761733 0.0057352916 0.038460918 0.0076657757 -0.043209694 -0.037024703 0.018960154
0.023565993 0.038144335 -0.035154097 -0.005219306 0.008883995 -0.058938634 -0.050594695 -0.0033664915
0.033041116 -0.07521713 0.057339434 -0.065948434 -0.04335539 -0.01882033 0.03813666 -0.060691603
-0.071190976 -0.005325333 0.03067612 0.029307708 0.05150652 0.007143805 -0.049605206 -0.009952202
-0.06784735 -0.042186387 -0.031866975 0.019040767 0.05730001 -9.119048e-05 7.266868e-05 0.004655984
0.024668949 -0.0034209134 0.062270842 -0.019079005 -0.012531298 0.031651147 -0.0016076937 0.013401171
0.030388117 0.01028855 0.034889508 -0.004681083 -0.064706974 -0.061214946 0.053745527 0.044588756
-0.050357044 0.0042778505 -0.045535665 -0.02222078 0.04333128 -0.0133581385 0.042508043 0.055037007
0.0093716355 0.011258364 -0.030765016 -0.06681987 -0.025775686 -0.0030041253 -0.060421534 0.042612296
0.040402517 0.03370983 -0.023756249 -0.0022760862 0.015433252 0.027633406 0.04400412 -0.020503452
-0.0748605 0.017652957 0.055887118 0.039587576 0.0067724464 -0.045327146 0.027381435 -0.052797094
-0.00059553655 -0.007405162 0.034330368 -0.020568348 0.0031774815 -0.019352697 0.066417724 0.0016766987
0.026919186 -0.002999765 -0.0028105825 -0.07642916 -0.019631023 -0.047119785 0.043082178 -0.074881785
-0.03702474 -0.05177702 -0.06348191 -0.041123696 -0.05405082 0.019495852 -0.037669472 0.010768296
0.029451184 -0.020262029 0.012995043 -0.06062392 -0.026081229 0.028883575 0.062441885 0.01856777
-0.032577273 -0.007926202 -0.00035484615 -0.014636678 0.00657667 0.015917419 -0.053226277 0.04480011
-0.040213075 0.004718171 -0.02360794 0.05800255 0.040971857 -0.055472583 -0.022050489 0.05402415
-0.06935085 -0.004988981 -0.017509324 0.061232805 0.025235131 -0.06498793 -0.04918801 -0.0065476587
0.035387315 -0.030955022 0.012032658 0.035313398 0.036306903 0.054315142 -0.06422835 0.030475393
-0.0014606596 -0.007156782 0.011133055 -0.031861573 -0.085627556 -0.017095493 0.029332511 -0.06951843

feature_layer.2.bias f4 [256]
00000000: fd63 ddbc 85a9 843d b68b 49bd 8bb6 febc
00000010: 48cb fcbc 2f1b 34bd c2f4 4cbd 3337 a73c
00000020: 00dc 173d d981 343d d39f 3ebd 9d6d b5bb
00000030: 538b 353c 9950 67bd d8c0 473c 4a9b b93c
00000040: b7d3 39bd dce2 cb3c 6657 073d 9b15 423a
00000050: cbfd 8a3d 5943 d939 509c 7e3c 9b19 233d
00000060: 1894 bc3c ae22 863c 5e5e d8bc 8dc1 22bd
00000070: 1be0 8f3c 6b3a 353c 6a19 973d 76ad 8c3c
00000080: 4f2a d1bc 22bc 47bc 1fdd 84bd 9a08 dabc
00000090: e6f7 593d 0ede 7a3c 6ff1 2fb9 72c2 4ebb
000000a0: b813 853d 4be5 133d 8071 143d d485 f6bc
000000b0: a25d ea3c e1d4 243d a750 94bd 7c8d 003d
000000c0: 7602 76bc 8a62 c03c cb4b db3c 5e4e 30bd
000000d0: 27a5 2fbd 45cb e53c a0ea 48bd dbc1 943d
000000e0: 22f0 49bd cda3 acbc 8a91 bc3c c9be e2bc
000000f0: 85a4 0f3d 8023 68ba c85b 5e3c 78e3 0dbc
00000100: 4791 963d b01f ddbc ac77 093d 3746 3c3d
00000110: 0ae2 0fbd 7117 18bc c47c 45bd 5716 61bd
00000120: 8671 dabc 60c5 78bc 50cb 41bc c6f8 4dbd
00000130: 945f c53c e0f1 3b3d 9e4b 6e3d 2d5e d13c
00000140: 26ca c2bc cb3f 9b3c 7b44 63bc 0af7 83bb
00000150: 4019 cfbc 02e6 7d3d 55ce 4cbd 988e cf3c
00000160: c262 66bd 7ff2 59bd 010d 393d 48dd 1f3d
00000170: 5bb4 f93c 795b 60bd d3f4 853c 13d5 943d
00000180: 6888 8cba 65eb a0bc cd6b 23bb e4f4 29bd
00000190: 938a b73c 1a5b 843d be1b a63b 7de3 21bd
000001a0: 5456 86bc 8684 793d cba1 2bbd b1fd 9ebc
000001b0: 5098 b4bc a894 ad3b fe6c 5b3d c12d 66bc
000001c0: 6c06 093d fb3b cbbb 3c97 723d 3572 bebc
000001d0: 096b 85bd 393c d4bc b3d8 d63c 1174 8ebd
000001e0: 4c72 6ebd 8d2a de3c 9c87 9f3d 20d3 1c3d
000001f0: 9474 84bd c8c2 983c e187 f63c 8146 c1bb
00000200: 6747 283d 0fe3 ca3c 47c7 1c3d f7c8 7dbb
00000210: bf3f 2cbd 53a3 533c 25d5 e43c 353d db3b
00000220: cb88 80bd d093 00bd 3aac 0cbb 242f 40bc
00000230: d638 76bd 7de1 63bd 9070 7a3d fbce bebb
00000240: 648c 92bd c0bb 053d 289b 9e3c 0ed6 093d
00000250: 8cfe 73bd 76ad 4fbd 3baf 3b3c 8039 af3d
00000260: ab72 743c 14fb 55bd e4a1 2f3b b49b 113d
00000270: 25b3 9dbc 5b63 1bbd 6f25 873d cb32 723d
00000280: af3d 193d 3c2e 473d 2e9b 8a3d 4e85 10bc
00000290: 6a8d 2e3d 7a72 1a3d c258 74bc 5c46 5dbd
000002a0: e604 dcbc 9e07 9a3b 7085 32bd 0c16 873d
000002b0: 3c1c 6fbd 93fb 693d cceb ab3c bcd8 4d3a
000002c0: 84f6 413d 40d3 423c 27e6 9dbd 9d86 2a3d
000002d0: c921 0cbc 2578 343b c75c 263d 08d9 d8bc
000002e0: 5712 903b c3cf 9b3c 4b2a 53bd 2929 6a3d
000002f0: cd97 d03c 999b 8f3d ef7a 49bd 86ba 1a3d
00000300: 1896 6dbd 51d0 133d a48d 833d 948d 263c
00000310: d992 263d e1fa 0e3d dec2 d63c cb15 393d
00000320: af71 8e3d 5d49 293d 36f9 473c c3d8 04bd
00000330: 96da 04bd 6582 b23c acc9 74bd 26a6 87bd
00000340: cbcf 863d 68ad 83bd 09a7 863d 073e 07bd
00000350: 63b8 06bc dd12 203a 1c1a 8b3d 9103 9b3d
00000360: ec7f c93c d3fb 55bc ad04 b7bb 7f98 9ebc
00000370: e893 df3c 5712 7fbd d6fc 59bc 9ffe 76bc
00000380: 8350 fbbb 157f 44b9 7aa4 1bbb 036e a43c
00000390: 1c15 c5bc eca4 6e3d f6de 773c 989a 7c3d
000003a0: aef7 6b3d 4837 89bc 2bf5 833c ff2e 09bd
000003b0: 678c 903c 4dae b83c 6a96 903d 9502 68bd
000003c0: f9c9 953c eeb4 713d c8c5 57bd 9ae4 c03c
000003d0: b0cf 0abd 587c 4f3d 60df 6b3b eda4 adbc
000003e0: bbe9 663d 7f65 2d3d fa9b 843c a3f9 a5bc
000003f0: fe8d 5bbd 8a73 8dbd 3801 7e3b af1a 3a3d
-0.027025217 0.06477646 -0.049205504 -0.031092903 -0.03085865 -0.043971237 -0.050038107 0.020412063
0.037075043 0.044069145 -0.04653914 -0.0055367486 0.011080581 -0.05647335 0.012191974 0.022657055
-0.045367923 0.024888448 0.033042334 0.0007403732 0.067866884 0.00041439643 0.0155401975 0.03981934
0.023019835 0.016373958 -0.026412185 -0.039735366 0.017562917 0.011061291 0.07377894 0.017172556
-0.02553287 -0.01219085 -0.06487488 -0.02661543 0.05321493 0.015311731 -0.00016779242 -0.0031549004
0.06497902 0.036107343 0.036241055 -0.030093111 0.0286091 0.04024208 -0.07241946 0.03138493
-0.015015235 0.023484487 0.02676954 -0.043043487 -0.04288211 0.028051028 -0.04905188 0.072635375
-0.049301274 -0.0210742 0.023018617 -0.027678864 0.035069007 -0.00088553876 0.013571687 -0.00866019
0.07351928 -0.026992649 0.033561394 0.0459654 -0.035127677 -0.009282933 -0.04821469 -0.054952946
-0.02666546 -0.015183777 -0.011828259 -0.050286077 0.024093427 0.045884967 0.058177583 0.025557602
-0.023778033 0.018951317 -0.0138713075 -0.004027252 -0.025280595 0.06198693 -0.05000146 0.025336549
-0.056246527 -0.053209778 0.045178417 0.03902939 0.030481508 -0.054774735 0.016352093 0.07267203
-0.0010721805 -0.019643495 -0.002493608 -0.04149331 0.022404945 0.06462689 0.005069225 -0.03952359
-0.016398586 0.0609174 -0.041902345 -0.019408079 -0.022045285 0.005297262 0.05357074 -0.0140489945
0.03345339 -0.0062022186 0.05922626 -0.023247818 -0.06514556 -0.025907623 0.026226377 -0.06955732
-0.05821447 0.0271199 0.07789537 0.038287282 -0.06467548 0.018647566 0.030094089 -0.0058982973
0.04108372 0.024766473 0.038275983 -0.003872452 -0.04205298 0.0129173575 0.027933666 0.006690646
-0.06276091 -0.031390965 -0.002146496 -0.011729989 -0.060112797 -0.055634964 0.061142504 -0.005823014
-0.07155684 0.032649755 0.019361094 0.033651404 -0.059568927 -0.050702535 0.011455352 0.08555889
0.014919917 -0.0522414 0.0026799375 0.03554888 -0.019250462 -0.03793655 0.06598937 0.05913047
0.03741234 0.048628077 0.067678794 -0.008820845 0.04261533 0.03770683 -0.01491374 -0.054022178
-0.026857805 0.004700615 -0.043584287 0.06596002 -0.058376536 0.057124685 0.02098646 0.00078524253
0.047354236 0.011891186 -0.07709914 0.041632283 -0.008552977 0.0027537432 0.040615823 -0.026470676
0.0043967175 0.019019967 -0.051554006 0.05716816 0.02546301 0.070121 -0.049189504 0.03777554
-0.05800447 0.036087338 0.064235 0.010165591 0.04066739 0.034907226 0.026215967 0.0451868
0.06955277 0.04132973 0.012205413 -0.032433283 -0.032435022 0.021790693 -0.05976264 -0.06623487
0.06582602 -0.06429559 0.06574828 -0.03301814 -0.008222672 0.00061063265 0.06792089 0.075690396
0.02459713 -0.013060528 -0.005585274 -0.019359825 0.027292207 -0.06227335 -0.01330491 -0.015075355
-0.00766951 -0.00018739358 -0.0023749159 0.020071989 -0.024057917 0.05826275 0.015128842 0.06167087
0.057609253 -0.016749993 0.016108116 -0.033492085 0.017645074 0.02254405 0.07059939 -0.056643087
0.018284785 0.05901044 -0.052678853 0.023546506 -0.033889472 0.050655693 0.0035991296 -0.021196807
0.056375246 0.042333122 0.016187657 -0.020260638 -0.05360221 -0.06906803 0.003875805 0.045435604

actor.0.weight f4 [2, 256]
00000000: 1b35 a1bc 97e0 253f 3682 883c 2558 2e3f
00000010: 6540 2b3d 8067 e7bc 001f 62bc 8c0f 073c
00000020: 9be0 e2bc 8a7c 3c3f 2c68 22bc 0c92 9dbe
00000030: 3dfb 023f 080c adbc 6d04 2a3f 55cb 2a3f
00000040: 0e44 ef3c e271 0a3f de73 da3e 4bac 75bd
00000050: 7423 2c3f 72ff 8abe 10bf f5bc 5fe5 1d3f
00000060: 85f0 7ebe e322 433c decf d1bc 3d4d 05bd
00000070: 0025 223c c00b 663d 7f45 75be 1bdc 2c3c
00000080: 29b9 5ebd 52bd d8bc 2c37 97bc 73cd 193f
00000090: 5545 393f 0b5e 323f f65a 5bbd 8ac2 493f
000000a0: 84ee 173f 2987 3c3b 3261 a4be 209e dfbb
000000b0: 01a0 a3be 33e8 99bc 533a 593c 2dcc bf3e
000000c0: 67ca d1bc 4a75 243f 6d33 87be 4542 79bb
000000d0: f01a 3dbd c5dd 203f 3e97 6fbd 3f01 54be
000000e0: de71 36bd 72d7 523d 98ea 60be 1555 c5bb
000000f0: 1e3d d3bc 2932 96be 73ca 203d 8a9a 233f
00000100: 20c6 083f 60ef d7bb a872 123f 73bf 033f
00000110: 6ca3 343f cd2e 5e3b 15af 283f 8750 cd3c
00000120: ebce 0b3a 21ac 3d3f 7571 803c 67ca 963c
00000130: f66a 473f 787a adbc 5981 113f 398a 52be
00000140: fa91 a4bc f8b1 353f 1291 c43c 26db 033d
00000150: 6062 e03c 07d8 333f fca8 eebc d2b5 233f
00000160: 686b dabc 73b3 ed3c 66ad 5f3d b25b 223f
00000170: d905 443f fa9a 863c 1c4e 403f 45cf af3e
00000180: f2ff 0e3f 5e3d a1be 0829 3d3f 5e15 553f
00000190: 417c 55bd 9018 343f 9265 373f a5d7 403d
000001a0: 2abb 13bd 3402 333f cd0c a2bb 0c32 333f
000001b0: 1771 413f 98bd c0bb 5890 413f d8db 3d3f
000001c0: dded 153f 7cf2 01bd bb3c 3d3f 54ac 313f
000001d0: 60d2 08bd f3f4 29bd 7f85 0fbd c8ad 2b3c
000001e0: 6d43 593d 0dca 323e 8bcf 6abe cc84 6cbe
000001f0: 3466 373d 509b 003f baec cd3c 8247 073d
00000200: a96c 0cbd f60d 403f 66f8 133f a453 453f
00000210: 36a5 873d d0bf 373d afcd f53e 38aa 24bd
00000220: c048 01bb 95c5 0ebc c0d5 f9bc a74d 28bd
00000230: d468 36bb 3419 4cbb a473 3a3f 0201 0b3f
00000240: 1c86 07bd 43ea 9fbe 50db 8bbe 1450 34bd
00000250: db2d 033d a042 113d c87b 46bc e834 7dbe
00000260: 9b57 0e3f 4d17 333d 22c6 04bd 3859 5f3d
00000270: 594c 26bc 11b8 363f c1c6 163f 5ae8 193f
00000280: b06d 71bc 80d0 1b3f 430f 73be 911c 473b
00000290: 86bf af3c 78aa 2d3f 502c 72bd 05ec 333d
000002a0: b000 ff3c 9e28 e8bc da9c 203f dd1a 293f
000002b0: bee3 74bd 52a1 2f3f cef9 8dbe e3a9 243f
000002c0: cf0c 8dbe 8e61 3abb 3d45 b9bc bcb6 3a3f
000002d0: 1158 0f3f e60a 60be 91c8 4bbd bb50 d13c
000002e0: 0208 48bd 1e7d 713d 1fce 153d 72bb 80be
000002f0: 7485 183f 43ee 79be a06c 493d ec77 fb3c
00000300: 8009 48bd ed0d 413f 2f09 353f e20c 253f
00000310: 5cd6 1d3f 543e ca3c 19ba 69be a388 323d
00000320: e95e 353f ade6 203f 6ca7 33bc d70f 4d3f
00000330: f7b7 90be 4932 3a3f 1812 b6bc 20e0 8ab9
00000340: 4e42 42be d37e 37bd 1578 90be 61c8 56be
00000350: 9438 9dbe d2a1 533c 0b79 133f 3e05 253f
00000360: 0065 a8be fa0e 99bc df0e fdba b2b3 273f
00000370: 5992 3a3f 8266 343d 3a84 5dbe e662 7ebc
00000380: e0a3 28be 95c3 183f 0f7b bbbc d31e 2e3e
00000390: 5b74 633c b30f 92be 6d3f 263b 9774 243f
000003a0: b111 493f 2708 f7bc a9dd f53e 9949 fe3c
000003b0: 8047 06bd d87e 07bd 0531 37be 69d9 f1bb
000003c0: 31bf 433f 8da1 9dbe 181e 263c 59c8 22bc
000003d0: 75ef 0b3f bfcb 0d3f d04e 1abd 4475 0b3d
000003e0: 8dde 2e3f 72be ebbc e603 043c c4ee 2a3f
000003f0: 8868 4e3d 3058 65bd c578 1d3d fc65 283f
-0.019678643 0.6479582 0.016663652 0.6810325 0.04180946 -0.028247595 -0.013801336 0.008243453
-0.02769499 0.7362753 -0.009912532 -0.30775487 0.5116461 -0.021123901 0.66413003 0.6671651
0.029207256 0.5408002 0.42666525 -0.059978765 0.672416 -0.27148014 -0.029998332 0.6167812
-0.24896438 0.011910173 -0.025611814 -0.032544363 0.009896517 0.05616355 -0.23952292 0.010550524
-0.0543758 -0.026457462 -0.018458925 0.60079116 0.7237142 0.6967475 -0.053553544 0.7881247
0.5934832 0.0028767085 -0.32105404 -0.00682427 -0.3195801 -0.018787479 0.0132585345 0.3746046
-0.025609208 0.6424147 -0.26406422 -0.0038033884 -0.046168268 0.62838393 -0.058493845 -0.207036
-0.044542186 0.051474996 -0.2196449 -0.0060221055 -0.025785979 -0.29335144 0.03925557 0.6390768
0.53427315 -0.006589815 0.572062 0.51464003 0.7056186 0.0033902407 0.65892154 0.025062812
0.00053332624 0.7409077 0.0156791 0.01840706 0.77897584 -0.021176562 0.56837994 -0.2056054
-0.020089138 0.70974684 0.023994956 0.032191418 0.027390659 0.70251507 -0.029133312 0.6394931
-0.026662543 0.029016232 0.054608725 0.63421166 0.7657142 0.01643132 0.75119185 0.34337822
0.5585929 -0.31492132 0.73890734 0.8323573 -0.05212045 0.7034998 0.7163936 0.047080655
-0.036067165 0.69925237 -0.0049453736 0.6999824 0.75563186 -0.0058819763 0.75610876 0.7416358
0.58566076 -0.03172539 0.7392079 0.69403577 -0.033403754 -0.041493367 -0.03503942 0.010478444
0.053042818 0.17459889 -0.22930734 -0.23097533 0.044775203 0.5023699 0.025137294 0.03302718
-0.034283314 0.750213 0.578009 0.7708075 0.06623308 0.04486066 0.48008487 -0.040201396
-0.00197272 -0.008714099 -0.030497432 -0.04108968 -0.0027833479 -0.0031142952 0.72832704 0.5429841
-0.03308688 -0.31233415 -0.2731576 -0.04402168 0.032026153 0.03546393 -0.012114473 -0.24727213
0.55602425 0.043723393 -0.032415517 0.054528445 -0.010150039 0.71374613 0.58897024 0.60120165
-0.014735624 0.6086502 -0.2373629 0.0030382017 0.02145363 0.6783824 -0.05912429 0.043926258
0.031128258 -0.02833968 0.62739336 0.66056615 -0.059787504 0.6860553 -0.27729648 0.64321727
-0.27548835 -0.0028439495 -0.022616023 0.7293508 0.55993754 -0.21879157 -0.049751822 0.02555119
-0.04883576 0.05895721 0.036573526 -0.2514301 0.59578633 -0.24407296 0.04917586 0.030696832
-0.048837185 0.75411874 0.7071714 0.6447278 0.6165521 0.024687923 -0.22824897 0.04358734
0.70847946 0.62851983 -0.010965209 0.80102295 -0.28265354 0.7273298 -0.022225425 -0.00026488397
-0.18970606 -0.044798683 -0.28216615 -0.20974876 -0.30707228 0.012916999 0.5760657 0.64461124
-0.32889557 -0.0186839 -0.00193068 0.6550857 0.7287956 0.04404307 -0.21632472 -0.015526509
-0.16468763 0.59673434 -0.022885827 0.17003946 0.013882722 -0.28527603 0.0025367395 0.642404
0.7854262 -0.030155255 0.48020676 0.031040953 -0.03278303 -0.033079952 -0.17889793 -0.0073806536
0.7646361 -0.30787316 0.010139011 -0.009935462 0.5466226 0.55389017 -0.037672818 0.03404738
0.68308336 -0.028777335 0.00805757 0.6677058 0.050392658 -0.055992305 0.038445253 0.65780616

actor.0.bias f4 [2]
00000000: a9a5 abbc 64d5 e43c
-0.020953016 0.027933784

critic.weight f4 [1, 256]
00000000: e2cd 21bd c20b 4d3c 8195 69bb a259 613c
00000010: b52c 0cbd b45b babc 8cb7 423d d003 0f3d
00000020: 92d1 ce3c 8799 c63c e74f 88bc b621 ed3c
00000030: 68ba 90bc da34 16bc 54a9 6d3d e638 9d3d
00000040: 18da 19bd 4df6 9b3d 0160 b9bd 8fd9 0b3d
00000050: 4b6a 993e 5a59 a9bd 7206 5c3d 460e df3d
00000060: 2294 61bd 20b3 31bd 5f8a 38bd 0290 aabc
00000070: 056b c3bc 6ed7 f63c ec8e 283d 186c 1cbd
00000080: f6af 2fbd 91ab 8ebc b701 0bbd 11de 853d
00000090: 4885 99bc 0878 fb3a 897b 0fbb 8da5 633d
000000a0: 8fc6 25bd a228 81bd 2c72 3dbc 802e 933b
000000b0: 37f7 b83e b22f 1b3d 214e 75bd 2e96 5b3e
000000c0: 9b08 56bd 25dc 043e aa01 e23c 2789 debc
000000d0: beef c93c 2788 1fbd 6028 86bb 92d1 1f3e
000000e0: cfdc 14bb 1555 943c e3af 083d 8124 0abd
000000f0: c33c ef3b 2b40 b6bd 509f 07bd 7841 c73d
00000100: e194 713b 3092 3bbd 43b6 73bd e072 83bc
00000110: 99bb cd3c b227 75bd 3532 273d 2696 3c3d
00000120: 88e9 65bd e64f fcbb 25be aa3c 115f 543c
00000130: 7427 b6bd ab0e 2bbd 35c6 ac3c f38f 5dbd
00000140: f6d8 febc 7aeb d5bc e05e 473d e77c 373c
00000150: 52f3 79bd 6ac1 e53d ca79 db3c b0c7 f53b
00000160: d2ff 5fbd 5d59 603d f2d9 c4bb 4a32 993d
00000170: 1ea4 12bd 4909 a33b 71fe deba c5e5 95bc
00000180: 6745 d1bd 1461 863e f0e0 c93b 1e70 9bbb
00000190: 5591 633d 201d 1c3e 1273 16bd 6ac7 643d
000001a0: 303e 703d bbd0 adbd a731 b1bc f258 5fbd
000001b0: 3895 8ebc 8cf1 bfbc eda7 633c 0fc9 0e3d
000001c0: 0f60 af3c 0ff5 98bc 841e ef3d 66f4 a0bd
000001d0: a1cc a5bc e600 1cbd 757d 5a3d 4c10 a4bc
000001e0: 7d1c 69bd 644f 3bbb e1da 7c3c 3fd6 f6bc
000001f0: 6ed5 f33c 6008 89bd 92a4 7fbd 45ae e7be
00000200: c720 cf3c 3ea2 3f3d f9ed 903d de9d 1bbc
00000210: 40fb 813d 1f27 3c3d e457 eebc 5009 513d
00000220: 8e88 b83b 2668 6d3d f1ea 60bd 38df 793b
00000230: 2030 71bd 6dca d1bc ef41 47bd 0e1c 36be
00000240: 108f 07bd 1839 8c3d 3ac0 82bd fc57 763d
00000250: d7e2 10bd 94a7 a13c aada 2b3d b501 c83d
00000260: 0183 fdbc 14df 723d 8d59 30bc 36b5 8fbc
00000270: f091 fabc 1429 f53b 1fd1 823d 1618 e13d
00000280: fcc2 453a 8e23 c7bc 9345 9a3e 141e 323d
00000290: 8c36 3cbd ce54 8b3a 3374 fd3b 06f5 7abd
000002a0: 79e0 b8bc 60d8 38bb db7d 09bc f0e7 ee3d
000002b0: 90a3 023c 215d c63d 1db6 173e 7b43 2c3d
000002c0: 71aa 9abd 2257 c13c a015 4b3d b3de df3d
000002d0: 1ca9 93bd c41d 1cbb 8c4c eabc 93a4 1a3d
000002e0: 6046 da3c 64f5 68bd 56b2 c83c bc76 ef3b
000002f0: 7373 1fbb 9369 113e a875 d73c 4c59 f63b
00000300: c52a 223d 6011 b13c d868 79bc 0082 da3d
00000310: 52ec bebc 5da3 c23c 7fa3 ba3e bef1 3ebd
00000320: f44b 983d d33d 60bd 4e17 5bbd 3d8a 0a3d
00000330: b5fe 813b 6497 1cbd 9e78 723d f7c6 14be
00000340: 20e2 88bd f3d9 7c3b e7bc 50bd 2aac d2bc
00000350: 9112 9cbd 9b13 47bd 58ca 3abd 2413 f73d
00000360: d4b1 973b 49ba d73c 8c13 32bd fbde 4b3d
00000370: c268 7dbd 2fcc 333d 1fa5 22bd 6a59 833c
00000380: 6612 0dbe 01a6 ecbd b993 fe3b 5aee dbbd
00000390: f7fb d8bc 9cf5 573d 8776 cb3b 2f24 093e
000003a0: 6888 c13d f833 623c f5a5 ffb9 5fd6 a73c
000003b0: fb73 8d3d ff1c fb3c 3df4 b6bd 58a5 263d
000003c0: 6783 14bc 77d4 8cbd 9033 f23c 2d73 653d
000003d0: 9963 b6bc 84c6 81bc f054 51bd 3fa2 fd3b
000003e0: cfff a3ba 90eb 57bd 867f cdbc 9cf9 8dbc
000003f0: 6659 3b3d 4eee 65bd 2bcc 103d 5b3d debc
-0.039502986 0.01251501 -0.003564209 0.01375428 -0.034222323 -0.022748806 0.047538325 0.034915745
0.025246415 0.02424313 -0.016639663 0.028946739 -0.01766701 -0.009167874 0.058022812 0.07676868
-0.037561506 0.076153375 -0.090515144 0.034143027 0.29963908 -0.082689956 0.053717084 0.10891394
-0.05507291 -0.043383718 -0.045053836 -0.020820621 -0.023854742 0.030132022 0.041151926 -0.038189024
-0.04289242 -0.017415794 -0.033937182 0.065364964 -0.018740311 0.0019185552 -0.00218937 0.055577803
-0.040472563 -0.06306578 -0.011562865 0.004491627 0.3612611 0.037887283 -0.059888963 0.21444008
-0.0522543 0.12974603 0.027588684 -0.027165009 0.02465045 -0.038948204 -0.0040941685 0.15607288
-0.002271462 0.018106977 0.033370864 -0.03372622 0.0073009445 -0.08898958 -0.033110917 0.09729284
0.003686242 -0.045793712 -0.05949999 -0.016045988 0.025113868 -0.05985231 0.040819366 0.04604163
-0.056130916 -0.0076999543 0.020842621 0.012962119 -0.08894244 -0.041762035 0.021090606 -0.05409236
-0.031109314 -0.02611326 0.048674464 0.011199213 -0.061023064 0.112185314 0.026791472 0.0075006112
-0.05468733 0.054772723 -0.0060074264 0.07480295 -0.035801046 0.004975472 -0.0017013085 -0.01829804
-0.102183156 0.2624594 0.006160848 -0.00474359 0.05555852 0.15245485 -0.036730833 0.05585424
0.058653057 -0.08487078 -0.021630121 -0.054528184 -0.017405137 -0.023430608 0.013895017 0.034859713
0.021408109 -0.01867154 0.11675742 -0.07859115 -0.020239176 -0.038086794 0.0533423 -0.020027302
-0.056911934 -0.0028581256 0.015433044 -0.030131457 0.029764857 -0.066910505 -0.062412806 -0.45250145
0.025284184 0.046785586 0.0707664 -0.009498088 0.0634675 0.045935746 -0.029094644 0.05103427
0.005631513 0.05796065 -0.054911558 0.0038127434 -0.058883786 -0.02560922 -0.048646864 -0.1778414
-0.03309542 0.06846827 -0.063843206 0.060142502 -0.03537258 0.019733228 0.04195658 0.097659506
-0.030946257 0.059294775 -0.010763538 -0.017542463 -0.030587167 0.0074817035 0.06387543 0.10990922
0.00075440085 -0.024308946 0.30131206 0.043485716 -0.045950457 0.0010630132 0.0077347993 -0.06126883
-0.022567974 -0.0028205141 -0.008391823 0.11665332 0.007973567 0.09685732 0.14815564 0.042056542
-0.0755204 0.023601118 0.04958117 0.109311484 -0.072099894 -0.0023821453 -0.028600954 0.037754606
0.026644886 -0.056874648 0.0244991 0.0073078554 -0.0024330288 0.1420043 0.02630122 0.0075179692
0.03959157 0.02161473 -0.015222751 0.10669327 -0.023306046 0.023759538 0.36452863 -0.046617262
0.07436362 -0.05474646 -0.053489022 0.03382324 0.003967131 -0.038230315 0.05919706 -0.14529024
-0.06683755 0.0038582056 -0.0509614 -0.02571686 -0.07620729 -0.04860268 -0.045603126 0.12064198
0.004629353 0.026333945 -0.043475673 0.049773198 -0.061867483 0.043895897 -0.039708253 0.016033847
-0.1377655 -0.115551 0.0077690748 -0.10738821 -0.026487334 0.052724466 0.006209198 0.13392709
0.094498456 0.013806336 -0.00048761038 0.020487962 0.06906887 0.030653475 -0.089333035 0.040685028
-0.009064532 -0.06876462 0.029565603 0.056018043 -0.022264289 -0.01584173 -0.051106393 0.0077402885
-0.001251215 -0.052714884 -0.025085222 -0.017330937 0.045739554 -0.05613547 0.03535096 -0.027128866
